pytorch_course/my_iris_model.pt (torch, 2631 bytes, 6 tensors)

fc1.weight f4 [8, 4]
0	0x3e0784fd	0.13234325
1	0xbedebab7	-0.43501827
2	0xbee3b322	-0.44472605
3	0xbce86cd7	-0.028372211
4	0xbec62908	-0.3870318
5	0x3da27df0	0.07934177
6	0x3e17a160	0.14807653
7	0xbef444da	-0.4770878
8	0x3ec69630	0.3878646
9	0x3df604b7	0.12012618
10	0x3f0ede44	0.558079
11	0xbda158d7	-0.07878273
12	0x3f363428	0.71173334
13	0x3f17b010	0.59253025
14	0xbec1b343	-0.37832078
15	0xbfacce28	-1.3500414
16	0x3eb2de33	0.3493515
17	0xbf270b3a	-0.65251505
18	0x3f4f3e80	0.8095474
19	0x3f7371e3	0.9509565
20	0x3ef95b73	0.48702583
21	0x3f79e22e	0.9761075
22	0xbf44368c	-0.7664573
23	0xbf9988cc	-1.1994872
24	0x3e2898a8	0.16464484
25	0xbde40d70	-0.111353755
26	0xbed7baec	-0.42134798
27	0xbeb5f058	-0.3553493
28	0xbea3649c	-0.31912696
29	0x3e136990	0.14395738
30	0xbeb2ff38	-0.3496034
31	0x3e6982e4	0.22803837

fc1.bias f4 [8]
0	0x3e41f9df	0.18942975
1	0xbe4fbc1c	-0.20286602
2	0x3f32f728	0.6990838
3	0x3f2a3784	0.6649096
4	0xbe000976	-0.12503609
5	0x3f3397ad	0.70153314
6	0xbe9fdcea	-0.31223232
7	0x3ec190f0	0.3780589

fc2.weight f4 [9, 8]
0	0xbe5ea13a	-0.2174119
1	0x3da82c21	0.08211542
2	0x3dd64e02	0.104640976
3	0xbeb464cc	-0.35233152
4	0xbed5c194	-0.4174925
5	0x3dcee1a2	0.1010163
6	0xbeb2e58a	-0.3494075
7	0xbe871c11	-0.263886
8	0x3e52380d	0.20529194
9	0xbdf2bfc5	-0.118529834
10	0x3f4d7896	0.80262125
11	0xbd41bb95	-0.047298033
12	0x3f074c42	0.52850735
13	0xbf2d24cf	-0.6763429
14	0x3d8f2e40	0.06991243
15	0xbea73170	-0.32654905
16	0xbeb6bde3	-0.35691747
17	0xbe8b128d	-0.2716259
18	0x3ddfe7b9	0.109328695
19	0xbf0fac37	-0.56122154
20	0x3f223f50	0.6337786
21	0xbf49e099	-0.78858334
22	0x3e9c0a27	0.30476496
23	0xbe572c89	-0.21013083
24	0xbd994904	-0.0748463
25	0xbd7892b4	-0.060686782
26	0x3e34592f	0.17612146
27	0xbd34113f	-0.04396176
28	0xbe08c915	-0.13357957
29	0xbdf0a0cf	-0.11749422
30	0xbe99b099	-0.30017546
31	0xbde6f0f4	-0.11276427
32	0x3dff2a0d	0.124591924
33	0xbe43c6a5	-0.19118746
34	0x3dede635	0.11616174
35	0xbf3262cd	-0.6968201
36	0x3f4d7ff9	0.80273396
37	0xbea1c8f7	-0.31598637
38	0xbe5049e8	-0.20340693
39	0x3c3a9ef6	0.011390438
40	0xbca1479c	-0.019687466
41	0x3d80614e	0.062685594
42	0xbe6b4676	-0.22976097
43	0xbe61de4c	-0.22057456
44	0xbd54b525	-0.051930565
45	0xbe8b2bbe	-0.2718181
46	0x3d214742	0.039374597
47	0xbe391707	-0.1807519
48	0xbe7ce05f	-0.24694966
49	0xbc8eea53	-0.017445719
50	0x3e9f7a5d	0.31148043
51	0x3daec0bd	0.08532856
52	0x3f4aaadb	0.79166955
53	0xbf181dfa	-0.5942074
54	0xbde24203	-0.11047747
55	0xbd7fb836	-0.062431537
56	0xbdf0603c	-0.11737105
57	0xbeaf947c	-0.34292972
58	0x3f2355fa	0.63803065
59	0x3f0601c4	0.52346444
60	0xbe3e3f99	-0.18578948
61	0x3f6e0b39	0.92985874
62	0xbeb46620	-0.35234165
63	0x3e9ffa81	0.31245807
64	0xbeacd317	-0.337548
65	0xbe552c37	-0.20817648
66	0x3dfb532c	0.12271723
67	0xbe2424d8	-0.1602968
68	0xbe353608	-0.17696393
69	0xbe771552	-0.24129227
70	0x3ddd306d	0.10800252
71	0x3e91ee49	0.2850211

fc2.bias f4 [9]
0	0x3c9aa53d	0.01887762
1	0x3f08cb87	0.5343556
2	0xbf255b12	-0.6459209
3	0xbee4fa6b	-0.44722304
4	0xbf07c005	-0.53027374
5	0xbd12de04	-0.03585626
6	0x3cfe5fdb	0.031051567
7	0x3ef57155	0.47938028
8	0xbceb225a	-0.028702904

out.weight f4 [3, 9]
0	0xbdfbcc7c	-0.12294862
1	0xbf06612f	-0.5249204
2	0xbe1cf03e	-0.1532602
3	0xbd1a9cd0	-0.037747204
4	0xbf41dfd9	-0.7573219
5	0x3e681a43	0.22666268
6	0xbf0b9b7a	-0.54534113
7	0x3f254243	0.6455423
8	0x3e99d7d2	0.3004747
9	0x3daa9448	0.08329064
10	0x3f028c9d	0.5099581
11	0xbf7702ea	-0.9648882
12	0xbe06d48a	-0.13167015
13	0xbf106ccd	-0.56416017
14	0x3e8b2fb0	0.2718482
15	0x3eb5bf4c	0.3549751
16	0x3ddc7d1c	0.1076605
17	0x3e56fb31	0.2099426
18	0xbe56402b	-0.20922916
19	0x3e7726b8	0.24135864
20	0x3f22ccb4	0.635936
21	0xbd1f1be2	-0.03884495
22	0x3f2fc511	0.68660074
23	0xbea4d2e6	-0.32192153
24	0x3f45321b	0.7702958
25	0xbf82e9cb	-1.0227598
26	0xbdbd0d3f	-0.09231042

out.bias f4 [3]
0	0x3f0fec24	0.56219697
1	0xbe9ebacd	-0.31001893
2	0xbf146dd8	-0.5798011
