pytorch_course/TaxiModel.pt (torch, 113041 bytes, 20 tensors)

embeds.0.weight f4 [24, 12]
0	0x3e84d68b	0.25944933
1	0xbead8e62	-0.33897692
2	0xbf2d65d8	-0.67733526
3	0x3ec5950c	0.38590276
4	0x3f61552a	0.88020575
5	0xbf2dcbaa	-0.6788889
6	0x3fb7967c	1.4342799
7	0x3e2e1bb6	0.17002758
8	0xbf90c466	-1.1309936
9	0x3f9ef79f	1.2419318
10	0x3ea97c80	0.33102798
11	0x3d809d5d	0.06280015
12	0xbde14310	-0.10999119
13	0xbfacfbde	-1.3514364
14	0xbe0fa88b	-0.14029138
15	0x3f6dc273	0.9287483
16	0xbf17f59e	-0.5935916
17	0xbfa42cc1	-1.2826158
18	0x3f8513a6	1.0396621
19	0xbf31e545	-0.6949046
20	0x3e07e93e	0.13272569
21	0x3f9f3ca2	1.2440379
22	0xbf476125	-0.77882606
23	0x3f1e27da	0.6177956
24	0x3e5d6b44	0.2162295
25	0xbf97e58b	-1.1866926
26	0xbf308a2a	-0.6896082
27	0x3ef7bccb	0.48386225
28	0xbe4153de	-0.18879649
29	0xbf21ed12	-0.63252366
30	0xbfaa8ece	-1.332483
31	0xbf97cbdb	-1.1859087
32	0xbf65eefe	-0.898178
33	0x3f0232ff	0.50859064
34	0xbf6d3342	-0.9265634
35	0x3f406464	0.75153184
36	0xbf85b5b2	-1.0446074
37	0xbeb4f843	-0.3534566
38	0xbf7611ef	-0.96121114
39	0x3fa3494c	1.2756743
40	0xbeb7e7db	-0.3591908
41	0x3e03dc68	0.12877047
42	0x3efe3202	0.49647528
43	0x3f557d38	0.83394194
44	0x3f085533	0.53255004
45	0x3e170666	0.14748535
46	0x3d41d57e	0.047322743
47	0x3ab3d8d2	0.0013721234
48	0xbf61aa21	-0.8815022
49	0xbf26bdd2	-0.6513339
50	0x3fadaa9f	1.3567694
51	0xbf9e64c1	-1.2374498
52	0xbec38c3d	-0.3819293
53	0xbfaae39a	-1.3350708
54	0xbf072092	-0.52784073
55	0x3f88f659	1.0700179
56	0x3d98dd48	0.07464081
57	0xbf2bfd44	-0.6718333
58	0x3f23323b	0.6374852
59	0x3ebdfefb	0.37108597
60	0x3ed258f0	0.4108348
61	0x3d8d32a5	0.06894425
62	0x3f4f0a22	0.80874836
63	0xc0220309	-2.5314353
64	0xbead3fb6	-0.3383767
65	0xc0076524	-2.1155481
66	0xbfd3ee27	-1.6557053
67	0x3d46fb2e	0.048579387
68	0xbf7861ee	-0.9702443
69	0x3efd3e9b	0.49461827
70	0x3e8c4f97	0.27404472
71	0x3f18e754	0.5972798
72	0x3e8b8fbc	0.27258098
73	0x3f78a3bf	0.97124857
74	0x3f3ae4c2	0.73005307
75	0xbf3a8f16	-0.7287458
76	0xbf1133f1	-0.5671988
77	0xbf241349	-0.64091927
78	0x3f0c39e1	0.54775816
79	0xbdc1d34f	-0.09464132
80	0x3fbcb8c6	1.4743888
81	0xbfa3d757	-1.2800092
82	0xbabc426e	-0.0014363059
83	0x3f97e7d7	1.1867627
84	0x3fd6d3cb	1.6783384
85	0x3c82b946	0.015957486
86	0x3e432283	0.19056134
87	0xbf92317a	-1.1421349
88	0xbf3e845c	-0.74420714
89	0x3d9fa505	0.07795147
90	0x3f11a067	0.5688538
91	0xbf9104f7	-1.132964
92	0xbf143470	-0.57892513
93	0xbf7407d4	-0.95324445
94	0xbeab11c9	-0.33412006
95	0xbf89019f	-1.070362
96	0xbeece58a	-0.46268874
97	0xbf3ceaf7	-0.7379603
98	0x40254591	2.582371
99	0x3fb01bdb	1.3758501
100	0xbdb13f7e	-0.08654688
101	0xbeee0a8b	-0.4649242
102	0xbf0fe57d	-0.56209546
103	0x3e5a9ed9	0.21349658
104	0x3f12a896	0.5728849
105	0x3f97cb93	1.1859001
106	0x3f194542	0.59871304
107	0xbf3dd9e2	-0.7416059
108	0x3f6e12ca	0.9299742
109	0x3e803046	0.2503683
110	0x3f876ea6	1.0580642
111	0xbd67676c	-0.056495115
112	0xbf92d8a9	-1.147237
113	0x3f1eed55	0.6208089
114	0xbea643aa	-0.324735
115	0xbf81ba3c	-1.0134959
116	0x3f652526	0.8950981
117	0x3fb9a1da	1.4502518
118	0xbfa509f8	-1.2893667
119	0x3d1f0e69	0.038832102
120	0xbe5d3ab1	-0.2160442
121	0x3fbd4633	1.4787048
122	0xbe1404ae	-0.1445491
123	0xbe6c70ca	-0.230899
124	0x3ebb8652	0.36625916
125	0xbf3928c8	-0.7232785
126	0xbf6f757d	-0.9353865
127	0x3f1d33e3	0.614073
128	0x3f13afc3	0.57690066
129	0xbf1a612a	-0.6030451
130	0xbfe33a24	-1.7752118
131	0xbf2eb462	-0.6824399
132	0x3ed36a32	0.41291958
133	0x3f5f5e6d	0.8725346
134	0xbf1f4e76	-0.62229097
135	0x3fe6eae7	1.8040437
136	0x3f1f307d	0.6218336
137	0x3f760497	0.96100754
138	0x3f43c043	0.76465243
139	0xbf6ba0c5	-0.9204219
140	0xbf9e4778	-1.236556
141	0xbff94062	-1.9472773
142	0xbcc1785f	-0.023616968
143	0xbf2c3242	-0.6726419
144	0xbfa68e0e	-1.3012102
145	0xbd298422	-0.041385777
146	0x3f56e58e	0.8394402
147	0x3f767d93	0.9628536
148	0xbe408e67	-0.18804322
149	0x3f9961e2	1.1982996
150	0xbf80dfbb	-1.0068277
151	0x400555d4	2.0833635
152	0xbe96c058	-0.29443622
153	0x3e9d5207	0.30726644
154	0x3f90fc83	1.132706
155	0xbfb2a95c	-1.3957934
156	0x3fdc3bf5	1.7205797
157	0x3efc4d97	0.49277946
158	0xbefe939f	-0.49722
159	0xbf57371b	-0.8406846
160	0xbf6b8dd5	-0.92013294
161	0x3d990fc8	0.07473713
162	0x3d5e935a	0.054339744
163	0x3eac64c0	0.33670616
164	0xbe270779	-0.16311444
165	0xbdf733dd	-0.12070439
166	0xbfcd5fe9	-1.6044894
167	0xbfce3adc	-1.6111712
168	0x3e6184e5	0.22023351
169	0xbfa1df6a	-1.2646306
170	0x3f89b2a2	1.075764
171	0x3f57d03d	0.8430212
172	0xbfd2ddb2	-1.6473906
173	0x3d916782	0.07099821
174	0x3fa50298	1.2891417
175	0xbe9ddd58	-0.30832934
176	0xbf8c52b4	-1.0962739
177	0x3e9b77ba	0.30364782
178	0x3f8fee60	1.1244621
179	0xbf57611d	-0.8413256
180	0xbe23c44a	-0.15992847
181	0xbe142273	-0.14466266
182	0x3d252639	0.040319655
183	0x3c911199	0.017708587
184	0x3f4a631d	0.79057485
185	0x3f51cc6a	0.81952536
186	0xbd9ac81d	-0.075577
187	0xbff751fb	-1.9321893
188	0x3e3e7edc	0.1860308
189	0xbf3f088c	-0.74622416
190	0xbfd21bc9	-1.6414729
191	0xbf21f871	-0.63269717
192	0xbfb10314	-1.3829064
193	0xbfafe720	-1.3742409
194	0xbeef7329	-0.46767548
195	0xbfac31a4	-1.3452649
196	0xbf551c58	-0.83246374
197	0x3dabd4b9	0.08390183
198	0x3f94740f	1.1597918
199	0x3fceee32	1.6166441
200	0x3c1cda88	0.009573586
201	0x3e3dc201	0.18531038
202	0xbec15d84	-0.3776666
203	0xbe9bf096	-0.3045699
204	0xbefce5ec	-0.49394166
205	0xc000ea65	-2.0143063
206	0xbf5f9c39	-0.8734775
207	0xbf94250a	-1.1573803
208	0x3e91c7ee	0.28472847
209	0x3ebc1db4	0.36741412
210	0xbfbc4820	-1.4709511
211	0xbdefcff2	-0.11709584
212	0xbf2d6c2f	-0.677432
213	0xbeac28d5	-0.33624902
214	0xbe84b2bf	-0.25917622
215	0x3f91b05a	1.1381943
216	0xbfd8efa9	-1.6948138
217	0xbf462467	-0.77399296
218	0xbf08ae63	-0.53391093
219	0xbf723f6b	-0.9462802
220	0x3f3c46ce	0.7354554
221	0xbeacdefd	-0.33763877
222	0x3f0c3977	0.54775184
223	0xb9562b22	-0.00020424699
224	0xbf73d967	-0.95253605
225	0x3ddb1a77	0.10698407
226	0xbf7f1d8d	-0.99654466
227	0xbf55a5ad	-0.83455926
228	0xbfbf9ca8	-1.4969683
229	0x3e4b4636	0.19851002
230	0xbf593986	-0.848534
231	0xbe489365	-0.19587477
232	0x3eb35305	0.35024276
233	0x3dad27ee	0.084548816
234	0x3ff67bed	1.9256569
235	0xbe2f0646	-0.17092237
236	0x3fa0dc6c	1.2567267
237	0xbea6870e	-0.32524914
238	0x3c9446d8	0.018100187
239	0x3f8fc0eb	1.1230749
240	0xbfe84ffc	-1.8149409
241	0xbf173f4a	-0.59080946
242	0xbe76a202	-0.24085239
243	0xbf125932	-0.5716735
244	0xbe0409cd	-0.12894364
245	0xbdc846c9	-0.09779126
246	0xbede5352	-0.43422943
247	0xc01ff6d3	-2.49944
248	0x3ebec5ed	0.3726038
249	0x3efc526c	0.49281633
250	0xbf3b96ee	-0.73277175
251	0x3f72ee9d	0.94895345
252	0xbfae3ee8	-1.3612947
253	0xbf0067bb	-0.5015828
254	0xbfa57169	-1.2925235
255	0xbec4a6f6	-0.3840863

embeds.1.weight f4 [2, 1]
0	0xbe5544df	-0.20827053
1	0x3e9af0ab	0.3026174

embeds.2.weight f4 [7, 4]
0	0x3dce411d	0.10071013
1	0x3e88a812	0.26690727
2	0x3f47b3be	0.7800864
3	0xbfd519fd	-1.6648556
4	0x3f03f5d7	0.51546997
5	0xbf35fd91	-0.71090037
6	0x3f95f880	1.1716461
7	0x3ea2bede	0.31786245
8	0x3fb9fd9d	1.4530522
9	0xbfb2d0c8	-1.3969965
10	0xbfbbbbf9	-1.466674
11	0x3ef69ffb	0.4816893
12	0x3f133f9c	0.57518935
13	0xbefddefb	-0.49584183
14	0xbfff210d	-1.9931961
15	0xbfd6e587	-1.6788796
16	0xbf018bd4	-0.50603986
17	0xbe228cde	-0.15874049
18	0x3fbe41ce	1.4863832
19	0x3ede1d99	0.43381956
20	0x3fcc3e39	1.5956489
21	0xbe8bd9bc	-0.27314556
22	0xbf899a7a	-1.0750268
23	0xbe7076c3	-0.23482804
24	0x3f0e4d8f	0.55587095
25	0xbf009e2d	-0.5024136
26	0xbec8cab9	-0.39217165
27	0x3c5cc86b	0.013475518

bn_cont.weight f4 [6]
0	0x3f8b43a3	1.0880016
1	0x3f87ba46	1.0603721
2	0x3f960a8e	1.1721971
3	0x3f8cd430	1.1002254
4	0x3f49ac38	0.7877841
5	0x3f9119d4	1.1336007

bn_cont.bias f4 [6]
0	0xbe4697eb	-0.1939389
1	0x3cc25928	0.023724154
2	0x3cc8cbd4	0.024511255
3	0x3d71586b	0.058922213
4	0xbea3a233	-0.31959686
5	0xbe90f133	-0.2830902

bn_cont.running_mean f4 [6]
0	0xc293f3e4	-73.97635
1	0x42230170	40.751404
2	0xc293f2e7	-73.97442
3	0x422301e9	40.751865
4	0x3fac9577	1.3483113
5	0x405400c9	3.312548

bn_cont.running_var f4 [6]
0	0x3a84db93	0.0010136239
1	0x3a2df01d	0.0006635206
2	0x3a8a51f0	0.0010552984
3	0x3a704f54	0.0009167094
4	0x3f13a528	0.57673883
5	0x41313eae	11.077803

layers.0.weight f4 [200, 23]
0	0x3c1282b0	0.008942291
1	0x3b8d499d	0.004311754
2	0xbc821896	-0.015880864
3	0xbb3af973	-0.002853003
4	0x3d107ac4	0.03527333
5	0x3caee24b	0.02134814
6	0xbc1bd34a	-0.009510824
7	0x3b2a8970	0.002602186
8	0x3c9c49c4	0.019078143
9	0x37755300	1.4622463e-05
10	0xbb4d3082	-0.003130943
11	0x3c6c6701	0.014428855
12	0x3d41df6f	0.047332224
13	0xbba958ff	-0.00516808
14	0xbb04910e	-0.002022806
15	0xbc500e36	-0.012698701
16	0xbbe0dd65	-0.00686233
17	0x3db4c85e	0.088272795
18	0x3dea87a9	0.11451656
19	0x3d8a81fb	0.06763073
20	0xbe300163	-0.17188029
21	0xbc767818	-0.015043281
22	0xbe8b6c8f	-0.2723126
23	0xbdba1ba5	-0.09087304
24	0x3dce490f	0.100725286
25	0xbd93a523	-0.07209232
26	0x3e3b96a1	0.18319179
27	0x3dea869a	0.114514545
28	0x3cdb0ea4	0.02674038
29	0xbc8a45bd	-0.016878957
30	0x3d8dc16a	0.069216564
31	0x3ddc1ebe	0.10748051
32	0xbca052f5	-0.019570807
33	0xbde32050	-0.110901475
34	0xbdd96339	-0.10614628
35	0xbe4b8e05	-0.19878395
36	0x3da79550	0.08182776
37	0xbd8e033c	-0.06934211
38	0xbb1c1259	-0.0023814647
39	0xbc1c8f40	-0.009555638
40	0xbc208987	-0.009798414
41	0x3d51985d	0.051170696
42	0x3d861b3d	0.06548164
43	0xbcb16211	-0.021653207
44	0x3db8e396	0.090277836
45	0x3e85b5f5	0.26115385
46	0xbd3e5882	-0.046471126
47	0xbd83bb45	-0.06432203
48	0x3b9c9a82	0.004779161
49	0xbca5645f	-0.020189462
50	0xbd4486d8	-0.04798016
51	0xbb20f68f	-0.0024561023
52	0xbc0f5ac1	-0.008749665
53	0x3c5405cd	0.012940836
54	0x3cb0320a	0.021508235
55	0xbc57e4e9	-0.013177135
56	0x3d53afb5	0.05168124
57	0xbda2b511	-0.07944692
58	0xbe1ef4a4	-0.1552301
59	0x3c7e97d1	0.015539126
60	0xbc854560	-0.016268432
61	0x3c7ca638	0.015420489
62	0xbb83be92	-0.0040205205
63	0x3cb0d2f5	0.021584967
64	0xbd868a79	-0.0656938
65	0x3c67367d	0.014112112
66	0x3cde95d6	0.027171057
67	0xbca6a6ca	-0.020343203
68	0x3e57f8eb	0.21091048
69	0xbe326e2d	-0.17424841
70	0x3d8b9b58	0.06816739
71	0x3cff33b8	0.031152591
72	0x3e206af8	0.15665805
73	0xbd54d890	-0.051964343
74	0xbdfbac19	-0.122886844
75	0xbda6690b	-0.08125504
76	0x3c36d335	0.011158754
77	0x3d8030a0	0.062592745
78	0xbd03d42c	-0.032184765
79	0x3ca7de80	0.020491838
80	0x3dab7889	0.083726
81	0xbe12823e	-0.14307496
82	0xbe16c82d	-0.14724799
83	0x3e1e4992	0.15457752
84	0xbd6c7e65	-0.057737727
85	0x3d9443b6	0.07239477
86	0x3e61ff44	0.22070032
87	0xbdd76135	-0.10516588
88	0xbe6eb4fe	-0.2331123
89	0xbe00b1e7	-0.12567864
90	0x3d14b888	0.036308795
91	0xbe1de721	-0.154202
92	0x3ba31dfc	0.0049779397
93	0x3b25cd10	0.0025299229
94	0x3b92c189	0.0044786376
95	0x3b86ebaf	0.004117451
96	0xbb3f1c01	-0.0029160979
97	0xbb2aff8b	-0.0026092257
98	0xb9d2533a	-0.0004011633
99	0x3a450f22	0.00075172086
100	0x3952d1af	0.00020105274
101	0x3a9495ca	0.0011336145
102	0x399e1d8c	0.00030158123
103	0xbb85064b	-0.004059588
104	0xbd2a33fd	-0.041553486
105	0xbaae1e17	-0.0013284114
106	0x3c889c4d	0.016676093
107	0xbbcce1cc	-0.006252503
108	0xb9e9e41a	-0.00044611172
109	0x3e875087	0.26428625
110	0xbe119e91	-0.14220645
111	0xbe5aa708	-0.2135278
112	0x3de71f58	0.11285275
113	0x3bf1196f	0.0073577682
114	0x3e01906b	0.12652747
115	0x3a230ad5	0.00062195706
116	0xbd805ce6	-0.06267719
117	0x3e2e0733	0.16994934
118	0xbcab3da7	-0.020903422
119	0x3e44891a	0.19192925
120	0xbdb4d326	-0.08829336
121	0x3df99d55	0.12188212
122	0x3d45c3d9	0.048282478
123	0x3d421519	0.0473834
124	0xbe681aae	-0.22666427
125	0xbe10d215	-0.1414264
126	0xbdf67092	-0.1203319
127	0xbdc94763	-0.09828069
128	0x3d020cdc	0.031750545
129	0xbd16fe0f	-0.036863383
130	0xbd26224e	-0.04056006
131	0x3dbcfd35	0.09227983
132	0xbe321b06	-0.17393121
133	0xbe72e668	-0.23720706
134	0xbe29ef01	-0.16595079
135	0x3de3037a	0.110846475
136	0xbdf8fd09	-0.121576376
137	0xbcedf3d7	-0.029046936
138	0xbc622aa4	-0.013804112
139	0xbc31d098	-0.010852955
140	0xbc40867c	-0.011750814
141	0xbc2c6b70	-0.010523662
142	0xbb7027c1	-0.003664479
143	0x3bfc7fca	0.0077056633
144	0xbb22049a	-0.002472198
145	0x3bcec806	0.0063104657
146	0xbc8e87f1	-0.017398806
147	0x3bd6e910	0.006558545
148	0x3c04e15d	0.008110371
149	0xbcbb1f32	-0.022842024
150	0xbdb47e80	-0.088131905
151	0x3b14055c	0.0022586202
152	0xbca14546	-0.019686352
153	0xbba87346	-0.005140695
154	0x3c847bde	0.016172346
155	0xbc67aec1	-0.014140786
156	0xbd395066	-0.04524269
157	0xba823937	-0.0009935264
158	0x3dd64fbe	0.10464428
159	0xbd10dedd	-0.03536879
160	0xbebf2fde	-0.37341207
161	0x3d8e2746	0.069410846
162	0xbcd13b36	-0.02554093
163	0x3dc77c35	0.097404875
164	0xbdc9a100	-0.098451614
165	0x3c855b86	0.016278993
166	0x3d5b9f7d	0.053618897
167	0x3cf9c5ae	0.030489769
168	0xbd364625	-0.04450049
169	0x3c187b2c	0.00930671
170	0xbdf75d66	-0.12078361
171	0x3e09a945	0.13443477
172	0x3c4b519b	0.012409593
173	0xbdd14306	-0.10217862
174	0xbda0d6ca	-0.07853468
175	0x3e05c96f	0.13065122
176	0x3d69d17d	0.05708455
177	0xbdf0e87a	-0.117630914
178	0x3e842bca	0.25814658
179	0xbe4ca885	-0.1998616
180	0xbe36a839	-0.1783761
181	0xbdb01c61	-0.08599163
182	0xbcb062ad	-0.021531427
183	0x3c997152	0.018730793
184	0xbdcb8655	-0.09937731
185	0x3d341b8e	0.04397159
186	0xbd8063a6	-0.062690064
187	0xbdb77df2	-0.08959569
188	0x3e23b8ac	0.15988415
189	0xbe0fc16f	-0.14038633
190	0xbc6424f4	-0.013924826
191	0x3e025ca4	0.12730652
192	0x3dc26d10	0.09493458
193	0xbe097ebe	-0.13427255
194	0xbd4b3c89	-0.049618278
195	0xbd60fc74	-0.054928258
196	0x3e1683ac	0.14698666
197	0xbda45e65	-0.08025817
198	0xbe2c038c	-0.16798228
199	0x3e6963ca	0.22791973
200	0x3dd410cf	0.103547685
201	0xbe34fe7d	-0.17675205
202	0xbdb377b8	-0.08763069
203	0xbdabfedf	-0.08398222
204	0x3ccb587c	0.024822466
205	0x3e62f346	0.22163114
206	0xbdde48e5	-0.10853747
207	0x3da6a06a	0.08136065
208	0xbcadbca3	-0.021208113
209	0x3d8db9a8	0.06920177
210	0xbcc87b82	-0.024472956
211	0xbd13fc03	-0.03612901
212	0x3d4c3c15	0.049861986
213	0xbbb63fd8	-0.00556181
214	0x3b8c01e8	0.004272688
215	0xbd900acf	-0.070333116
216	0xbcd664db	-0.026171139
217	0x3c819867	0.015819741
218	0x3d32a0da	0.04361043
219	0x3db1b197	0.08676451
220	0xbda02990	-0.078204274
221	0xbdbc7d21	-0.09203554
222	0x3d0496a7	0.032370236
223	0xbd2c56ba	-0.042074896
224	0x3e0f3bec	0.13987702
225	0xbe0144cd	-0.12623902
226	0xba8472de	-0.0010105034
227	0xbc9b368f	-0.018946914
228	0x3d6eaa73	0.05826802
229	0x3e73809d	0.23779531
230	0x3d318c3c	0.04334663
231	0x3d87705e	0.06613229
232	0x3e04345a	0.12910596
233	0xbdd1b855	-0.10240237
234	0x3e0ecdc7	0.13945685
235	0xbe04a3c5	-0.12953098
236	0xbd258875	-0.04041334
237	0xbd250486	-0.040287517
238	0x3dd4dbba	0.10393472
239	0xbe148029	-0.14502014
240	0xbda2ef07	-0.07955747
241	0xbd3cfa10	-0.046136916
242	0xbd56e3eb	-0.052463453
243	0x3db23f20	0.087034464
244	0xbc079963	-0.008276316
245	0x3d15d092	0.03657586
246	0x3e0bcb75	0.13651831
247	0xbcb33522	-0.021875922
248	0x3e84ca5c	0.25935638
249	0x3e4b77c1	0.19869901
250	0xbd5fe273	-0.05465932
251	0x3df6acc5	0.12044672
252	0x3e69a634	0.22817308
253	0x3b48880d	0.003059867
254	0xbba2ffd4	-0.0049743447
255	0x3d149433	0.036274146

layers.0.bias f4 [200]
0	0x3eb36831	0.3504043
1	0xbe418807	-0.18899547
2	0xbd8cc3c0	-0.06873274
3	0xbe29dfc4	-0.16589266
4	0x3e01bacb	0.12668912
5	0xbbecca66	-0.007226276
6	0x3e2ff8db	0.17184775
7	0xbda9960c	-0.08280572
8	0x3b37c3fb	0.0028040397
9	0x3ce8ad95	0.028403083
10	0x3d2063ce	0.03915768
11	0x3b9de10c	0.0048180874
12	0x3d976c27	0.07393675
13	0x3c860ae0	0.016362607
14	0xb9d6b7cb	-0.00040954197
15	0x3e7f5079	0.24933042
16	0xbdf02812	-0.11726393
17	0x3ea988d9	0.3311222
18	0x3e368678	0.17824733
19	0x3de1898b	0.11012562
20	0x3ece6bb9	0.4031656
21	0x3e00f257	0.12592445
22	0xbd8fe3f6	-0.07025902
23	0xbe4d9c52	-0.20079163
24	0xbe3aeb2b	-0.18253772
25	0x3e74f17b	0.23920242
26	0x3ebd25f8	0.3694303
27	0xbeb83247	-0.3597586
28	0x3dbaf394	0.0912849
29	0x3e134850	0.14383054
30	0xbe4022f5	-0.18763335
31	0xbcef151b	-0.029184869
32	0x3e068685	0.13137253
33	0xbe0a7662	-0.13521722
34	0xbd661800	-0.056175232
35	0xbd83ae83	-0.0642977
36	0x3de4e34b	0.11176165
37	0xbe157a4c	-0.14597434
38	0x3d957cd8	0.07299203
39	0xbe404f40	-0.18780231
40	0xbe65b20c	-0.224312
41	0x3e41de9b	0.18932573
42	0xbed1228a	-0.40846664
43	0x3e5da6fe	0.21645734
44	0x3e528940	0.20560169
45	0xbe692860	-0.22769308
46	0xbeb479aa	-0.35249072
47	0xbe1dbe79	-0.15404691
48	0x3d19fbbb	0.037593585
49	0x3ed69c90	0.41916323
50	0xbd67de26	-0.05660834
51	0x3d05f062	0.03269995
52	0xbe6dcbdd	-0.23222299
53	0x3e60fb4d	0.21970864
54	0x3e968b3a	0.29403096
55	0xbea6da5b	-0.32588467
56	0x3da3171c	0.07963392
57	0xbda8880c	-0.08229074
58	0xbdd54a13	-0.10414519
59	0x3dd3bb3f	0.10338449
60	0x3e6fba3d	0.23410888
61	0xbd4a5dc4	-0.049405828
62	0xbdef2353	-0.116766594
63	0x3d8c802d	0.06860385
64	0x3e41cd4c	0.18925971
65	0xbeb4c4c7	-0.3530638
66	0x3e8be50e	0.27323192
67	0xbe9e8ee5	-0.30968395
68	0x3e203d11	0.15648295
69	0xbe8d6db4	-0.2762276
70	0x3c3cbfa9	0.011520305
71	0xbed37a1d	-0.41304103
72	0xbdae6aab	-0.08516439
73	0x3c861a12	0.016369853
74	0xbe39ea3a	-0.18155757
75	0x3e83571a	0.2565239
76	0xbe264360	-0.16236639
77	0xbe4af045	-0.19818218
78	0x3dcb6a50	0.09932387
79	0x3debd856	0.11515872
80	0x3e2b88e4	0.16751438
81	0xbdc1b98a	-0.09459217
82	0x3db074d2	0.08616032
83	0xbdab13ee	-0.08353411
84	0x3c9ab0df	0.018883167
85	0xbd6f744a	-0.05846051
86	0xbd60bc8a	-0.054867305
87	0xbe0631ba	-0.13104907
88	0xbe5ef110	-0.21771646
89	0x3eacbd12	0.33738
90	0xbe3a7d8e	-0.18211958
91	0xbe834048	-0.2563498
92	0x3d1aeb36	0.03782197
93	0xbd46f4af	-0.048573192
94	0x3e06d7b5	0.13168223
95	0xbcce071b	-0.025149873
96	0x3ede7462	0.43448168
97	0xbddfd77c	-0.10929772
98	0x3e626f4b	0.22112767
99	0xbe80421c	-0.25050437
100	0xbda29675	-0.07938854
101	0x3de9e259	0.114201255
102	0x3e760546	0.24025449
103	0xbdf520a5	-0.11969117
104	0x3e1db615	0.1540149
105	0x3e049c32	0.12950209
106	0x3e9b90d2	0.30383927
107	0x3c5b8c71	0.013400183
108	0xbde303a9	-0.110846825
109	0x3d0712e2	0.032976992
110	0x3e298dc1	0.16557981
111	0x3cb2ec48	0.021841183
112	0x3d640143	0.055665266
113	0x3d3246fe	0.043524735
114	0x3eb606b0	0.35551977
115	0x3de2f880	0.11082554
116	0x3cbdb4b5	0.023157457
117	0x3cd5ffe9	0.026123004
118	0xbd97c722	-0.074110284
119	0xbdddf963	-0.10838582
120	0xbe0726ad	-0.13198347
121	0xbe32ec4f	-0.17472957
122	0xbe9f392d	-0.3109831
123	0x3a7ec6be	0.0009718946
124	0x3e0cf440	0.13765049
125	0xbed06819	-0.4070442
126	0xbdf34a2d	-0.11879382
127	0x3dda35c9	0.1065479
128	0x3b3b3766	0.0028566956
129	0x3e907050	0.28210688
130	0x3e287552	0.16451004
131	0x3c8d6c07	0.017263426
132	0x3e2bd10d	0.16778965
133	0x3cb9213a	0.022598851
134	0xbd8cd6ec	-0.068769306
135	0x3e800ad2	0.25008255
136	0x3d28d64d	0.04122
137	0xbe44957a	-0.19197646
138	0x3edc9b61	0.43087295
139	0xbd833062	-0.06405713
140	0x3ec86519	0.3913963
141	0xbc0cc75f	-0.008592456
142	0xbdb15977	-0.08659642
143	0x3e82aa5d	0.25520602
144	0xbe0f4e09	-0.13994612
145	0x3d213157	0.039353695
146	0x3ec1813f	0.3779392
147	0x3d82af4a	0.0638109
148	0x3c877311	0.01653436
149	0x3db3bd16	0.087763
150	0x3e81d0db	0.25354657
151	0xbd830366	-0.063971326
152	0xbe4fdf10	-0.20299935
153	0xbda14483	-0.07874396
154	0x3d4f1d4b	0.050565045
155	0x3d6e96bf	0.05824923
156	0xbd890f7a	-0.06692405
157	0x3e4efacc	0.20212859
158	0x3b783205	0.003787161
159	0x3e24429c	0.16041034
160	0x3d71da9d	0.059046376
161	0x3e854cd4	0.26035178
162	0xbea8b905	-0.3295366
163	0x3e045719	0.1292385
164	0xbda7831d	-0.08179305
165	0xbeec1628	-0.46110654
166	0x3e9e420e	0.3090977
167	0xbe1d9dc1	-0.1539221
168	0x3e982a76	0.29719895
169	0xbf0cf834	-0.5506623
170	0xbdcd84c4	-0.10035089
171	0x3d21b56e	0.039479665
172	0x3e90e643	0.28300676
173	0xbf0b9799	-0.54528195
174	0x3e9ae75d	0.3025464
175	0x3d802e06	0.06258778
176	0xbd6ece07	-0.05830195
177	0x3ec015d0	0.37516642
178	0xbdd730c7	-0.105073504
179	0xbe28cfc5	-0.16485508
180	0xbe9fa4da	-0.3118046
181	0xbe62f26a	-0.22162786
182	0x3e0d7fd3	0.13818292
183	0x3e136023	0.14392142
184	0xbc9aceb4	-0.018897392
185	0xbd4f7946	-0.050652765
186	0x3e188083	0.14892773
187	0x3e066d2a	0.1312758
188	0x3d6f9411	0.058490817
189	0xbdca3bee	-0.09874712
190	0xbec4768d	-0.38371697
191	0x3e72bfc8	0.23705971
192	0xbe2cfa77	-0.1689242
193	0xbd4d427a	-0.050112225
194	0x3cb38c47	0.021917475
195	0x3ebf0cc1	0.37314418
196	0xbdd03c4f	-0.10167753
197	0xbe1b4ec0	-0.1516676
198	0x3e913956	0.28364056
199	0x3ecfd41d	0.40591517

layers.2.weight f4 [200]
0	0x3f80af7d	1.0053555
1	0x3f74d287	0.9563374
2	0x3f69500f	0.91137785
3	0x3f77b5fd	0.9676207
4	0x3f833312	1.024996
5	0x3f76692e	0.9625424
6	0x3f75c864	0.96008897
7	0x3f76e2b9	0.964397
8	0x3f6f16b3	0.9339401
9	0x3f7f5709	0.9974218
10	0x3f71380b	0.9422614
11	0x3f700f9c	0.9377382
12	0x3f743dc8	0.9540677
13	0x3f8a22df	1.0791892
14	0x3f84ae41	1.0365678
15	0x3f7d0b82	0.98845685
16	0x3f7735b5	0.96566325
17	0x3f75609b	0.95850533
18	0x3f796d03	0.97431964
19	0x3f781cb6	0.9691881
20	0x3f6de75e	0.92931163
21	0x3f7a7541	0.97835165
22	0x3f80fb2b	1.007665
23	0x3f81eb05	1.0149847
24	0x3f6f6e71	0.93527895
25	0x3f75e8e4	0.9605849
26	0x3f7fef56	0.9997457
27	0x3f83894d	1.0276276
28	0x3f71523d	0.9426611
29	0x3f75f274	0.9607308
30	0x3f72ea83	0.94889086
31	0x3f72d41c	0.94854903
32	0x3f69a4d6	0.91267145
33	0x3f6e7d52	0.93159974
34	0x3f798cba	0.97480357
35	0x3f8e4c43	1.1117023
36	0x3f78d8ba	0.972057
37	0x3f7c55cf	0.98568434
38	0x3f7cb073	0.9870674
39	0x3f7ba2bf	0.98295206
40	0x3f797a44	0.9745219
41	0x3f7e00f2	0.9922019
42	0x3f7ab76f	0.9793615
43	0x3f782884	0.9693682
44	0x3f7cbe9b	0.9872834
45	0x3f71ebdb	0.9450051
46	0x3f704537	0.93855613
47	0x3f7597de	0.95934856
48	0x3f657d6d	0.8964451
49	0x3f6c7ab5	0.92374736
50	0x3f8c056b	1.0939153
51	0x3f6e6dc2	0.9313623
52	0x3f6bf134	0.9216492
53	0x3f731a85	0.9496234
54	0x3f797409	0.9744268
55	0x3f6e4bc8	0.93084383
56	0x3f77d59f	0.96810335
57	0x3f74c00c	0.9560554
58	0x3f884b32	1.0647948
59	0x3f7b5d6d	0.9818943
60	0x3f751f51	0.9575091
61	0x3f672f1e	0.9030627
62	0x3f660769	0.89855057
63	0x3f7da030	0.9907255
64	0x3f7016f7	0.9378504
65	0x3f75324b	0.95779866
66	0x3f761fc8	0.96142244
67	0x3f73f2e2	0.95292485
68	0x3f7472c4	0.9548762
69	0x3f7ca3aa	0.9868723
70	0x3f73d163	0.95241374
71	0x3f913d8c	1.1346908
72	0x3f6a777d	0.91588575
73	0x3f787230	0.97049236
74	0x3f705c6d	0.9389103
75	0x3f81b6a3	1.0133861
76	0x3f7a6707	0.9781346
77	0x3f7a3467	0.9773621
78	0x3f767a3a	0.9628025
79	0x3f6dbd8c	0.9286735
80	0x3f787eaa	0.97068274
81	0x3f7cf56e	0.98811996
82	0x3f73c524	0.9522269
83	0x3f7b1d2f	0.98091406
84	0x3f730eb0	0.94944286
85	0x3f8a8132	1.0820677
86	0x3f767f7e	0.9628829
87	0x3f860393	1.0469841
88	0x3f6ef379	0.9334026
89	0x3f7c7d45	0.98628646
90	0x3f826f09	1.0190135
91	0x3f7378ea	0.95106375
92	0x3f75db24	0.9603751
93	0x3f7be676	0.9839853
94	0x3f836f16	1.0268276
95	0x3f6d5352	0.9270526
96	0x3f7cfc76	0.98822725
97	0x3f6ed9b5	0.93300945
98	0x3f794e62	0.9738523
99	0x3f777dfd	0.9667662
100	0x3f7a7859	0.97839886
101	0x3f6a4147	0.91505855
102	0x3f751913	0.95741385
103	0x3f71f6d7	0.9451727
104	0x3f80f0a8	1.0073442
105	0x3f79ce3f	0.9758033
106	0x3f708bb9	0.939632
107	0x3f769995	0.963281
108	0x3f715466	0.94269407
109	0x3f791059	0.9729057
110	0x3f74f7d2	0.95690644
111	0x3f695e32	0.91159356
112	0x3f7c0bb8	0.9845538
113	0x3f7e6104	0.99366784
114	0x3f836292	1.0264456
115	0x3f77ae50	0.96750355
116	0x3f788f0a	0.9709326
117	0x3f842163	1.0322689
118	0x3f6ce600	0.9253845
119	0x3f7a7594	0.9783566
120	0x3f7a1fa0	0.97704506
121	0x3f6ea7ca	0.93224776
122	0x3f7781e7	0.9668259
123	0x3f767e62	0.96286595
124	0x3f74c2c3	0.9560968
125	0x3f8f0424	1.1173139
126	0x3f76aaa4	0.96354127
127	0x3f7bbb06	0.9833225
128	0x3f6a6898	0.9156585
129	0x3f8039df	1.0017661
130	0x3f76cd88	0.96407366
131	0x3f77704f	0.96655744
132	0x3f736bd2	0.95086396
133	0x3f6ba060	0.9204159
134	0x3f73c2ac	0.9521892
135	0x3f84b990	1.0369129
136	0x3f6794d8	0.9046149
137	0x3f854bbd	1.0413738
138	0x3f78cde5	0.9718917
139	0x3f681531	0.90657336
140	0x3f72992c	0.9476497
141	0x3f761591	0.9612666
142	0x3f6a6705	0.91563445
143	0x3f6aa4c2	0.9165765
144	0x3f7642d7	0.9619574
145	0x3f74034d	0.95317537
146	0x3f79dbb8	0.9760089
147	0x3f602b11	0.87565714
148	0x3f754a44	0.95816445
149	0x3f728bce	0.94744575
150	0x3f7d9ba6	0.99065626
151	0x3f6d29d6	0.9264196
152	0x3f933702	1.1501162
153	0x3f74dd97	0.9565062
154	0x3f84307f	1.03273
155	0x3f7164b3	0.9429428
156	0x3f7c963c	0.9866674
157	0x3f77f91b	0.9686448
158	0x3f6de06e	0.9292058
159	0x3f78e3cd	0.97222596
160	0x3f7a7114	0.97828794
161	0x3f72daae	0.9486493
162	0x3f855fef	1.0419902
163	0x3f7490b9	0.9553333
164	0x3f685f38	0.9077029
165	0x3f7e7090	0.99390507
166	0x3f76b4fd	0.96369916
167	0x3f7567b5	0.9586137
168	0x3f750cac	0.9572246
169	0x3f85a9da	1.044246
170	0x3f88fc14	1.0701928
171	0x3f73340a	0.9500128
172	0x3f7d84b5	0.9903062
173	0x3f706c31	0.93915087
174	0x3f7b7833	0.98230284
175	0x3f798b2a	0.9747797
176	0x3f90b9fc	1.1306758
177	0x3f81bfdb	1.0136675
178	0x3f82f530	1.0231075
179	0x3f728310	0.94731236
180	0x3f8616e6	1.0475738
181	0x3f74a070	0.9555731
182	0x3f684dcf	0.90743726
183	0x3f6f3ff2	0.9345695
184	0x3f739974	0.95156026
185	0x3f7ab7c0	0.9793663
186	0x3f73f681	0.9529801
187	0x3f703b4b	0.93840474
188	0x3f6c71c7	0.9236111
189	0x3f821135	1.0161501
190	0x3f824152	1.0176184
191	0x3f72da95	0.9486478
192	0x3f791f66	0.97313535
193	0x3f794b5d	0.9738062
194	0x3f78a015	0.97119266
195	0x3f6f08de	0.93372905
196	0x3f782964	0.9693816
197	0x3f7e36c2	0.99302304
198	0x3f7aedca	0.9801909
199	0x3f7d1794	0.988641

layers.2.bias f4 [200]
0	0x3e26e9fc	0.16300195
1	0xbd83bc0a	-0.0643235
2	0xbcc679b9	-0.024227964
3	0x3d94ece9	0.072717495
4	0x3e16e739	0.14736642
5	0x3e0062e5	0.12537725
6	0x3d998588	0.07496172
7	0xbd94b330	-0.0726074
8	0xbd254317	-0.040347185
9	0xbd610526	-0.05493655
10	0xbdd3cb85	-0.10341553
11	0xbda06752	-0.07832207
12	0xbced1041	-0.028938415
13	0x3df20e4d	0.11819134
14	0x3dad0d68	0.08449823
15	0x3e164f98	0.146788
16	0x3dd8b18e	0.10580741
17	0x3e106d88	0.14104283
18	0x3d8cbac7	0.068715625
19	0x3d31586c	0.043297216
20	0x3de2359a	0.1104538
21	0x3ce63e19	0.028105782
22	0x3e38e1d8	0.18054903
23	0xbcbb6784	-0.022876509
24	0xbdb8c48f	-0.090218656
25	0x3d021416	0.031757437
26	0x3de7563d	0.112957455
27	0x3e07f5a2	0.13277295
28	0x3da4cd83	0.08047011
29	0xbde00796	-0.10938947
30	0xbdd2f2ca	-0.103002146
31	0xbe040e8f	-0.12896179
32	0xbc7b5153	-0.015339213
33	0xbe2799e6	-0.16367301
34	0x3d0ada40	0.033899546
35	0x3e75d9bd	0.24008842
36	0x3df8510a	0.12124832
37	0x3d173b76	0.03692194
38	0x3d3e6cd4	0.046490505
39	0x3dfc05d6	0.123058006
40	0x3bdc4f97	0.006723355
41	0xbd3eb3c0	-0.04655814
42	0xbd8817ad	-0.06645141
43	0x3d6135df	0.054983016
44	0x3e0d1eb4	0.13781244
45	0x3da0042c	0.07813296
46	0x3d1bce89	0.038038764
47	0x3d344a9a	0.044016458
48	0xbd7bcb84	-0.061473384
49	0x3db4eac6	0.08833842
50	0x3e6acced	0.22929735
51	0x3d720f4b	0.059096616
52	0xbdcd076d	-0.10011182
53	0x3df4b788	0.11949068
54	0x3e42221f	0.18958329
55	0x3d860133	0.065431975
56	0x3e7105f2	0.23537424
57	0xbcef0a3e	-0.029179689
58	0x3e63a03d	0.22229095
59	0x3b48c821	0.0030636864
60	0x3df919bb	0.12163111
61	0xbd6c1bd5	-0.05764373
62	0x3d2b64b2	0.041844077
63	0xbdd89a31	-0.10576285
64	0x3d246c49	0.04014233
65	0xbdb39926	-0.08769445
66	0x3db13e23	0.0865443
67	0xbaa4af82	-0.0012564512
68	0xbd91b161	-0.071139105
69	0x3b4383ab	0.002983312
70	0xbe05668b	-0.13027398
71	0xbca0810b	-0.019592782
72	0xbdb6efaf	-0.08932435
73	0x3de23a91	0.11046327
74	0xbcd13454	-0.025537647
75	0x3d4e977f	0.050437447
76	0xbd8547ac	-0.06507811
77	0xbd41d533	-0.047322463
78	0xbd91ffde	-0.07128881
79	0xbd275b5d	-0.040858615
80	0xbd101305	-0.03517439
81	0xbdea5647	-0.11442237
82	0x3dcd4ef7	0.10024827
83	0xbd2c7eb6	-0.04211303
84	0x3d72ef75	0.059310395
85	0x3e750d36	0.23930821
86	0x3d2b8194	0.041871622
87	0x3e48af8d	0.19598217
88	0x3d37b1eb	0.04484741
89	0x3e039d98	0.12853086
90	0xbd934844	-0.07191518
91	0xbdaf0e4c	-0.08547649
92	0xbd27e90a	-0.040993728
93	0x3dae52ed	0.085119106
94	0x3dd9b87b	0.1063089
95	0xbe3b2bfe	-0.182785
96	0x3e00837a	0.12550154
97	0xbd02e718	-0.03195867
98	0x3dd99128	0.106233895
99	0x3d17c3e2	0.037052043
100	0xbdb4649f	-0.088082545
101	0xbe0d3527	-0.13789807
102	0x3dbc3684	0.091900855
103	0xbdadc6b1	-0.08485163
104	0x3dbeaeaf	0.09310662
105	0x3dd61d0e	0.104547605
106	0x3e058c33	0.13041763
107	0xbdad3b13	-0.08458533
108	0xbd87d995	-0.06633297
109	0xbd957a49	-0.07298715
110	0x3a8e9e2c	0.0010880879
111	0xbdba5219	-0.0909769
112	0x3d792b84	0.060832515
113	0x3d839362	0.064245954
114	0x3da044e3	0.07825639
115	0x3b3c4c5f	0.0028732044
116	0x3cde6b24	0.027150698
117	0x3d8c7191	0.068575986
118	0xbd57e58b	-0.052709144
119	0x3d817e8e	0.063229665
120	0x3dadd964	0.084887296
121	0xbda0c624	-0.07850292
122	0xbdcc6870	-0.09980857
123	0xbd75f919	-0.06005201
124	0xbd8104e1	-0.06299759
125	0x3daf17d5	0.085494675
126	0xbda58655	-0.080822624
127	0x3dba485a	0.09095831
128	0x3d64ed59	0.055890415
129	0x3d9c1f3f	0.07623147
130	0xbdcd246b	-0.10016712
131	0x3d96e2b3	0.07367458
132	0xbd7773f8	-0.06041333
133	0xbd83113a	-0.0639977
134	0x3dc82b70	0.0977391
135	0x3e2f081d	0.17092939
136	0xbdcb921c	-0.099399775
137	0x3ded6a9e	0.11592601
138	0x3e384565	0.17995222
139	0xbd08f727	-0.033438828
140	0x3d2cf3bc	0.04222463
141	0x3d6be833	0.05759449
142	0xbdb32536	-0.08747332
143	0x3da83b9f	0.08214497
144	0x3c415387	0.0117997
145	0xbd80200f	-0.06256115
146	0x3ce4a0a5	0.027908633
147	0x3c429892	0.011877196
148	0xbd85bbda	-0.065299705
149	0xbd86c617	-0.065807514
150	0xbd906bba	-0.07051797
151	0xbdae9c8f	-0.08525955
152	0x3da94694	0.08265415
153	0x3d431890	0.047630847
154	0x3dbbc2ed	0.091680385
155	0xbd7cde1f	-0.06173527
156	0xbd40ee13	-0.047102045
157	0x3e19a96f	0.1500604
158	0x3d5d472f	0.054022964
159	0xbd15d33f	-0.036578413
160	0xbd80801e	-0.062744364
161	0x3dec4c91	0.115380414
162	0x3e158cf5	0.14604552
163	0x3dbf694a	0.09346254
164	0x3de2d598	0.11075896
165	0xbd489868	-0.04897347
166	0x3e3e5022	0.18585256
167	0xbd9b73e0	-0.07590461
168	0x3dd68d31	0.10476149
169	0x3cf1c8c6	0.029514682
170	0x3e192ebf	0.14959238
171	0xbdbe0134	-0.09277573
172	0x3da07e2e	0.07836567
173	0xbe282506	-0.16420373
174	0x3df7fcf0	0.12108791
175	0x3dc3a3aa	0.09552701
176	0x3e787902	0.24264911
177	0x3e18cc00	0.1492157
178	0x3d318911	0.043343607
179	0xbd904315	-0.07044045
180	0x3d909e47	0.07061439
181	0xbdce27f4	-0.10066214
182	0x3cac3b76	0.021024447
183	0x3dea2e3c	0.114346
184	0xbd822c60	-0.0635612
185	0x3d5bc6a6	0.053656243
186	0x3dee2e88	0.11629969
187	0x3d120ab5	0.035654742
188	0x3dfb9292	0.122838154
189	0x3e8033a3	0.25039396
190	0x3e059ad9	0.13047351
191	0x3e26a159	0.16272487
192	0xbaf17f24	-0.0018424732
193	0x3dd339af	0.10313737
194	0xbccbeb2b	-0.02489241
195	0x3e503859	0.20333995
196	0x3d894c0a	0.067039564
197	0x3cffb2cb	0.031213185
198	0x3dac6a49	0.0841871
199	0x3ddcae17	0.107753925

layers.2.running_mean f4 [200]
0	0x3edbf722	0.42961985
1	0x3df21ad1	0.11821521
2	0x3da3ba4a	0.07994516
3	0x3da96a4f	0.0827223
4	0x3dd99278	0.1062364
5	0x3eaeda8b	0.3415111
6	0x3ec439d8	0.3832538
7	0x3ddc8225	0.107670106
8	0x3e97af59	0.29625967
9	0x3de82182	0.11334516
10	0x3e76ad67	0.24089585
11	0x3e1d8e09	0.15386213
12	0x3e940414	0.2890936
13	0x3da168cc	0.078813165
14	0x3e3da2a7	0.18519078
15	0x3eb4c8eb	0.35309538
16	0x3d9f4646	0.077770755
17	0x3f01c890	0.5069666
18	0x3e3a9920	0.18222475
19	0x3e784b8c	0.24247569
20	0x3f107f7c	0.56444526
21	0x3eb77965	0.35834804
22	0x3dc1819d	0.0944855
23	0x3d706b1b	0.058695894
24	0x3e098c7b	0.13432495
25	0x3ef59628	0.47966123
26	0x3ed1535e	0.40883917
27	0x3d46e0bc	0.048554167
28	0x3e918edd	0.2842931
29	0x3ebc1ab0	0.3673911
30	0x3de228ef	0.11042964
31	0x3e3bff2b	0.18359058
32	0x3ead5308	0.3385241
33	0x3e1df3dc	0.15425056
34	0x3e0cd3f1	0.13752724
35	0x3de0e3bd	0.10980938
36	0x3ee5926a	0.44838268
37	0x3d7b3e4e	0.061338715
38	0x3e8fcbc4	0.28085148
39	0x3d542e55	0.051802
40	0x3c9fbe33	0.019499874
41	0x3e9d2df0	0.3069911
42	0x3db29194	0.08719173
43	0x3ed76ef8	0.4207685
44	0x3e424e44	0.18975168
45	0x3d8ec18f	0.06970512
46	0x3d83882e	0.064224586
47	0x3e3966c2	0.18105605
48	0x3e8bd025	0.2730724
49	0x3f07146c	0.52765536
50	0x3dd16072	0.102234736
51	0x3e65ab8d	0.22428723
52	0x3d81cfa7	0.06338435
53	0x3edcbb7e	0.43111795
54	0x3e5fda43	0.21860604
55	0x3d5b781c	0.053581342
56	0x3e7f5a7d	0.24936862
57	0x3e843cbe	0.25827593
58	0x3db35e0a	0.08758171
59	0x3e88e7bb	0.26739296
60	0x3f0a3dae	0.54000366
61	0x3e922525	0.28543964
62	0x3e41508b	0.18878381
63	0x3e874f0d	0.26427498
64	0x3ecfe639	0.40605333
65	0x3d8e01aa	0.06933911
66	0x3e628af6	0.22123322
67	0x3d888b3c	0.06667182
68	0x3e57e1f5	0.2108229
69	0x3d5923b3	0.05301256
70	0x3dfbf4f0	0.123025775
71	0x3cea8ea9	0.028632479
72	0x3e3ea347	0.18616973
73	0x3e5b64fd	0.21425243
74	0x3d077900	0.03307438
75	0x3ed216d9	0.41033056
76	0x3d5faa57	0.054605808
77	0x3d8a5c04	0.06755832
78	0x3ec68d98	0.38779902
79	0x3dcf4548	0.10120636
80	0x3e2951ab	0.1653506
81	0x3e296e11	0.16545893
82	0x3ec86b82	0.39144522
83	0x3d7fe7bf	0.06247687
84	0x3e5570ef	0.20843862
85	0x3dd0dbfd	0.101982094
86	0x3e0a7192	0.13519886
87	0x3d4846b3	0.04889555
88	0x3d509a63	0.050928485
89	0x3f080bec	0.5314319
90	0x3dedc704	0.11610225
91	0x3d7e8394	0.0621372
92	0x3ec45c14	0.383515
93	0x3e52ba19	0.20578803
94	0x3ec1f34c	0.37880933
95	0x3e8a6f00	0.2703781
96	0x3f24eb3f	0.6442146
97	0x3df7efbb	0.12106272
98	0x3ee102d9	0.43947485
99	0x3d91ee16	0.071254894
100	0x3dd5913a	0.104280904
101	0x3e6e7d01	0.23289873
102	0x3e32f8a5	0.17477663
103	0x3d8ffd2a	0.07030709
104	0x3ea807f3	0.32818565
105	0x3ea722c3	0.3264371
106	0x3ed4be0e	0.4155125
107	0x3e7eff08	0.24901974
108	0x3e5d5018	0.21612585
109	0x3e41a5f0	0.18910956
110	0x3e80e74c	0.25176466
111	0x3e189a2d	0.14902563
112	0x3ec3eafe	0.38265222
113	0x3ea381a2	0.3193484
114	0x3ee70316	0.45119542
115	0x3f02de42	0.5112039
116	0x3e1e9b10	0.15488839
117	0x3e8cac8e	0.274754
118	0x3dc23484	0.09482673
119	0x3e8f38c8	0.27973008
120	0x3d52bb7c	0.05144833
121	0x3e11fb2b	0.14255969
122	0x3d48dfcc	0.049041554
123	0x3e08a94b	0.1334583
124	0x3e2ab919	0.16672172
125	0x3bd02611	0.006352194
126	0x3dbb4529	0.09144051
127	0x3e74e61b	0.23915903
128	0x3e680608	0.2265855
129	0x3eeec656	0.46635693
130	0x3ec1c8fc	0.3784865
131	0x3dbe600c	0.09295663
132	0x3edbb3aa	0.4291051
133	0x3e044d4c	0.12920111
134	0x3e869320	0.26284122
135	0x3e9a2a29	0.3011029
136	0x3e291842	0.1651316
137	0x3d59c9a0	0.0531708
138	0x3f0a3152	0.53981507
139	0x3dcd580c	0.10026559
140	0x3efd1c66	0.4943573
141	0x3e7a1db6	0.24425396
142	0x3d9118aa	0.070847824
143	0x3eed25cd	0.46317902
144	0x3d724879	0.059151147
145	0x3e0358c9	0.12826838
146	0x3e952d29	0.29136017
147	0x3e07de1a	0.13268319
148	0x3e0e3660	0.1388793
149	0x3e262744	0.16225916
150	0x3ed5fe9f	0.41795823
151	0x3e30a79e	0.17251441
152	0x3d98f139	0.074678846
153	0x3eb5d6eb	0.35515532
154	0x3e77cd87	0.24199496
155	0x3e10c33d	0.14136977
156	0x3de5b93f	0.112169735
157	0x3ee5b127	0.4486172
158	0x3e953d07	0.29148123
159	0x3e3c9477	0.1841601
160	0x3e6b0e50	0.22954679
161	0x3ec67ccf	0.38767096
162	0x3d513620	0.05107701
163	0x3eba49f5	0.3638455
164	0x3e80909c	0.25110328
165	0x3c515d5a	0.012778604
166	0x3e736177	0.23767649
167	0x3dcf46e4	0.10120943
168	0x3ee6b82c	0.45062387
169	0x3be11d55	0.0068699517
170	0x3d465105	0.04841711
171	0x3e309dac	0.17247647
172	0x3e6439c9	0.22287668
173	0x3c86c972	0.016453478
174	0x3e6b8973	0.23001651
175	0x3edf4b75	0.43612257
176	0x3dd44308	0.10364348
177	0x3ede38aa	0.43402606
178	0x3e7f0777	0.24905191
179	0x3e17b034	0.1481331
180	0x3bffc925	0.0078059607
181	0x3e102557	0.14076744
182	0x3e989d90	0.2980771
183	0x3ec7e229	0.39039734
184	0x3e19c08d	0.15014859
185	0x3e30009d	0.17187734
186	0x3ec8bf96	0.39208668
187	0x3ec0c449	0.37649754
188	0x3e8592b1	0.2608848
189	0x3d968374	0.073492914
190	0x3d0f3355	0.034961063
191	0x3e2fab2d	0.17155142
192	0x3d9c08c5	0.0761886
193	0x3e6626de	0.22475764
194	0x3e153a7e	0.14573094
195	0x3ef097d9	0.4699085
196	0x3e8ad2ed	0.2711405
197	0x3e0e2731	0.13882138
198	0x3eee6b21	0.46566108
199	0x3f1d3a03	0.61416644

layers.2.running_var f4 [200]
0	0x3d435f09	0.047698054
1	0x3da04817	0.0782625
2	0x3d404fc2	0.046951063
3	0x3d13b756	0.036063515
4	0x3ddfb9f2	0.10924138
5	0x3e212de0	0.15740156
6	0x3d587375	0.052844483
7	0x3db6e512	0.089304104
8	0x3e2bc09f	0.16772698
9	0x3de5a372	0.11212815
10	0x3e32b1d4	0.17450649
11	0x3dd1ed5d	0.102503516
12	0x3e11034c	0.14161414
13	0x3d853bcf	0.06505548
14	0x3d91aa71	0.07112587
15	0x3da6f407	0.08152013
16	0x3cdae80b	0.026721975
17	0x3e17db67	0.14829789
18	0x3e31b24e	0.17353174
19	0x3db6be61	0.08923031
20	0x3d7f6e6d	0.06236117
21	0x3e14498f	0.14481185
22	0x3d8a4cc0	0.0675292
23	0x3d6059e4	0.054773226
24	0x3e1380c4	0.14404589
25	0x3e254ccb	0.16142575
26	0x3da68c74	0.08132258
27	0x3d7de91b	0.061989885
28	0x3dee9998	0.116503894
29	0x3e7faded	0.24968691
30	0x3d98d3f9	0.074623056
31	0x3caab0f4	0.020836331
32	0x3e77865a	0.24172345
33	0x3e078c5f	0.13237141
34	0x3d2ca922	0.042153485
35	0x3ddd77c0	0.10813856
36	0x3ddfba75	0.10924236
37	0x3d91db3d	0.071218945
38	0x3de3d466	0.11124496
39	0x3d3505d0	0.044194996
40	0x3c29e2e4	0.010369036
41	0x3cdeeeb3	0.02721343
42	0x3d3a049e	0.04541456
43	0x3e3c3f4e	0.18383524
44	0x3def4616	0.1168329
45	0x3d775605	0.06038477
46	0x3da9f182	0.08298017
47	0x3db41ee7	0.08794957
48	0x3e250c3a	0.16117945
49	0x3d85c633	0.06531944
50	0x3ddf9ddd	0.10918782
51	0x3db58c90	0.08864701
52	0x3d505924	0.05086626
53	0x3d66aefc	0.05631922
54	0x3db7f207	0.0898171
55	0x3d70af33	0.058760833
56	0x3d84d425	0.06485776
57	0x3e26bf61	0.16283943
58	0x3ddb4da7	0.107081704
59	0x3cedd420	0.029031813
60	0x3e14b4d9	0.14522113
61	0x3e0a9661	0.13533928
62	0x3dc9bf34	0.09850922
63	0x3d03648e	0.03207832
64	0x3e3628f6	0.17789063
65	0x3d3b9bad	0.04580276
66	0x3d9fda24	0.07805279
67	0x3d8d7fdc	0.06909153
68	0x3dda60a4	0.10662964
69	0x3d307599	0.0430809
70	0x3dd8036c	0.10547528
71	0x3c4e12bf	0.012577712
72	0x3e07147a	0.13191405
73	0x3d130a86	0.035898708
74	0x3c1c34bf	0.00953406
75	0x3d383f17	0.044982042
76	0x3d6eb811	0.05828101
77	0x3d61dff7	0.05514523
78	0x3e8bbcf3	0.27292594
79	0x3d88ca0b	0.06679162
80	0x3dd882c3	0.10571816
81	0x3df748c2	0.12074424
82	0x3e391485	0.18074234
83	0x3d529de3	0.051420104
84	0x3dc48ff4	0.095977694
85	0x3da57034	0.08078042
86	0x3d101ca6	0.03518357
87	0x3cef08d9	0.029179024
88	0x3d0930f7	0.033493962
89	0x3dddc5bf	0.10828733
90	0x3d3975c3	0.045278322
91	0x3d575f75	0.05258127
92	0x3e953707	0.29143545
93	0x3d579b9d	0.05263864
94	0x3de6295f	0.1123836
95	0x3e125e65	0.14293821
96	0x3e0d2899	0.13785018
97	0x3e191e33	0.14952926
98	0x3d9b85d7	0.07593887
99	0x3db0ada9	0.08626873
100	0x3da4e2ce	0.08051072
101	0x3e0a075d	0.13479371
102	0x3d6e040c	0.05810933
103	0x3d4fc4c1	0.05072475
104	0x3e07ee99	0.13274612
105	0x3dc2ccca	0.09511717
106	0x3df05b59	0.11736173
107	0x3e4c1b68	0.1993233
108	0x3e1a6182	0.15076259
109	0x3e77f8a8	0.24215949
110	0x3dd8d9cd	0.10588417
111	0x3ddfbd5c	0.10924789
112	0x3e290175	0.16504462
113	0x3e272d1c	0.16325802
114	0x3e1b69ce	0.1517708
115	0x3e6971cb	0.22797315
116	0x3e097000	0.13421631
117	0x3dd97f11	0.10619939
118	0x3db44086	0.08801369
119	0x3dfc3269	0.123143025
120	0x3d58b1aa	0.05290381
121	0x3dee1e11	0.116268285
122	0x3d2e278a	0.042518176
123	0x3db670ae	0.08908211
124	0x3e04ce5a	0.12969342
125	0x3b63eb3e	0.0034777666
126	0x3d545caf	0.051846202
127	0x3d67f049	0.05662564
128	0x3ddb5d09	0.107111044
129	0x3e072ce3	0.13200717
130	0x3e8ff80c	0.28118932
131	0x3db26205	0.08710102
132	0x3e75d403	0.24006657
133	0x3dfc6e3d	0.12325714
134	0x3e04e582	0.12978175
135	0x3d0cfef2	0.034422822
136	0x3de5701c	0.11203024
137	0x3d23b565	0.039967913
138	0x3db0a824	0.0862582
139	0x3dca661e	0.098827586
140	0x3d3cfc94	0.046139315
141	0x3de00790	0.109389424
142	0x3d757666	0.059927367
143	0x3e5a8150	0.21338391
144	0x3d0e2cff	0.03471088
145	0x3dd465eb	0.10371002
146	0x3e482ac6	0.19547567
147	0x3ddaed6c	0.10689816
148	0x3db1aacc	0.08675155
149	0x3db36127	0.08758765
150	0x3d53b563	0.051686656
151	0x3debfc03	0.11522677
152	0x3ceea415	0.029130975
153	0x3e2699d7	0.16269623
154	0x3dc88a60	0.09792018
155	0x3e06e3e5	0.13172872
156	0x3db346d3	0.08753743
157	0x3d89adab	0.06722578
158	0x3e20375b	0.15646116
159	0x3de1dfca	0.110290125
160	0x3e12b5a0	0.14327097
161	0x3dce0ee3	0.10061433
162	0x3d82d2d8	0.063878715
163	0x3ddbd0b0	0.10733163
164	0x3d1f8909	0.038949046
165	0x3bf378a5	0.0074301534
166	0x3dcdc7e3	0.10047891
167	0x3d3b8fea	0.045791544
168	0x3db36e43	0.08761265
169	0x3b508685	0.003181846
170	0x3bfaf3bf	0.0076584513
171	0x3e0cdb38	0.137555
172	0x3da53dd9	0.08068437
173	0x3cb34910	0.021885425
174	0x3de8a3a2	0.113593355
175	0x3db9a1d1	0.09064067
176	0x3de4affc	0.11166379
177	0x3dc8c239	0.0980267
178	0x3e0747a9	0.1321093
179	0x3e0697d8	0.13143861
180	0x3b9049c1	0.0044033234
181	0x3dacb12d	0.08432231
182	0x3e565f06	0.20934686
183	0x3d8645ee	0.06556307
184	0x3e06631c	0.13123745
185	0x3d60abd8	0.054851383
186	0x3e13355e	0.14375827
187	0x3de9c1c0	0.11413908
188	0x3e1abe54	0.15111667
189	0x3d273bee	0.040828638
190	0x3d087fdc	0.03332506
191	0x3d837f06	0.06420712
192	0x3dab5d22	0.08367373
193	0x3dcc27e2	0.099685445
194	0x3da83961	0.08214069
195	0x3d7b736f	0.061389383
196	0x3e00857f	0.12550925
197	0x3d42cd5c	0.047559127
198	0x3d51fe02	0.05126763
199	0x3ddd1593	0.107951306

layers.4.weight f4 [100, 200]
0	0xbd87715b	-0.06613418
1	0x3d727591	0.05919415
2	0xbcf88a3e	-0.030339357
3	0x3d46ecd0	0.048565686
4	0x3d8c2c19	0.068443485
5	0xbccc4003	-0.024932867
6	0xbd364f30	-0.044509113
7	0x3c296961	0.010340066
8	0xbbf2beff	-0.0074080224
9	0xbd4146a0	-0.047186494
10	0x3cc03138	0.02346097
11	0x3ceb0ebd	0.028693551
12	0x3cb3f717	0.021968408
13	0x3d65f94c	0.05614595
14	0x3c0ba53d	0.008523283
15	0xbe08c495	-0.1335624
16	0xbe177401	-0.14790346
17	0xbd13d84c	-0.03609495
18	0xbd71177e	-0.058860295
19	0xbd3d81dc	-0.04626642
20	0x3d3f67b3	0.046729755
21	0xb9a6bcba	-0.000318026
22	0x3d009c3d	0.031399
23	0xbd0ab99e	-0.033868425
24	0x3cd5fba9	0.026120977
25	0xbdc08f29	-0.09402306
26	0xbb562cd5	-0.003268053
27	0x3cf96e16	0.030448
28	0x3c4320c1	0.011909665
29	0x3d81a9b0	0.063311934
30	0xbd731c43	-0.059353124
31	0xbcb96b98	-0.022634313
32	0xbd99a06c	-0.07501301
33	0xbae3ac97	-0.0017370161
34	0x3cd3480f	0.025791196
35	0x3ca57a52	0.020199928
36	0xbe1e4e0c	-0.1545946
37	0x3d014258	0.03155741
38	0xbe1115a9	-0.14168419
39	0x3cee6aa2	0.02910358
40	0x3de8c496	0.11365621
41	0x3d2c50f1	0.04206938
42	0x3cc5224a	0.024064202
43	0xbca5c606	-0.020236026
44	0xbcb3aaef	-0.021932093
45	0x3d2b7de9	0.041868124
46	0x3ba1fe8a	0.0049436735
47	0x3c820a78	0.015874133
48	0x3d74e940	0.059792757
49	0x3d51c840	0.051216364
50	0x3c63b9c2	0.013899269
51	0x3c98560f	0.018595723
52	0x3d37738d	0.044787932
53	0x3d421061	0.0473789
54	0x3d18546b	0.037189882
55	0xbc7b62dd	-0.015343395
56	0xbe30417e	-0.17212483
57	0x3dc77e9f	0.09740948
58	0xbcf57355	-0.029962221
59	0x3d1156bf	0.03548312
60	0xbd91824c	-0.0710493
61	0x3ca52e5c	0.020163707
62	0xbb580e7d	-0.003296762
63	0x3d685ce6	0.05672922
64	0x3db93323	0.09042957
65	0xbc5c913c	-0.013462361
66	0x3d10167a	0.035177685
67	0x3d460261	0.048342112
68	0xbcd3e7af	-0.025867311
69	0x3cbf9a8c	0.023389123
70	0xbc2dc4f0	-0.010606036
71	0xbe71b220	-0.23603106
72	0xbcec8b01	-0.028874876
73	0x3d3544ad	0.044254947
74	0x3d9dddfe	0.07708357
75	0xbca35540	-0.019938111
76	0x3c2e9885	0.010656481
77	0x3cddcbc9	0.027074711
78	0xbd17e977	-0.037087884
79	0xbb39b28f	-0.002833519
80	0xbd49bd26	-0.04925265
81	0x3d25405a	0.040344574
82	0xbe1615f3	-0.1465681
83	0x3c03e79d	0.008050826
84	0x3d8a9569	0.06766779
85	0x3c35d3af	0.011097833
86	0xbd9442a3	-0.072392724
87	0xbe5b8097	-0.21435772
88	0x3cecd384	0.028909452
89	0xbd6d8256	-0.057985626
90	0xbdc647cd	-0.09681664
91	0xbcfc8cbe	-0.03082883
92	0xbd62dcd6	-0.055386387
93	0xbb5f3fa2	-0.0034065028
94	0xbd4a4533	-0.0493824
95	0x3c5f5b56	0.013632616
96	0x3b581ee2	0.0032977392
97	0x3c7dc339	0.015488439
98	0xbd85d775	-0.06535236
99	0xbd75435f	-0.059878703
100	0x3d276c43	0.04087473
101	0xbc28b283	-0.010296467
102	0xbc42db27	-0.01189307
103	0xbbb2b718	-0.0054539554
104	0xbd432fb2	-0.047652908
105	0xbd981a04	-0.07426837
106	0xbd1726f3	-0.03690238
107	0xbcc33933	-0.023830986
108	0xbaa47645	-0.0012547454
109	0xbc631863	-0.013860795
110	0x3ca259f5	0.019818285
111	0xbd2bc683	-0.041937362
112	0xbd49551f	-0.049153443
113	0xbcb92ce3	-0.022604411
114	0x3bfef381	0.007780493
115	0x3d414c1c	0.047191724
116	0x3d55c624	0.052190915
117	0xbe235d50	-0.15953565
118	0x3c9fbb08	0.019498363
119	0xbe10cbb7	-0.14140211
120	0xbd31755c	-0.043324813
121	0x3ca03d6b	0.019560536
122	0x3bba53e7	0.0056862715
123	0xbc6ec0c6	-0.014572328
124	0x3c6fec1f	0.014643698
125	0x3d8aa5dd	0.06769917
126	0x3cdb6840	0.026783109
127	0xbd73290d	-0.05936532
128	0xbe3149a8	-0.17313254
129	0x3c175de9	0.0092386985
130	0x3cde0b64	0.02710504
131	0x3c2790f8	0.010227434
132	0xbdac3dd1	-0.08410228
133	0x3b9f9014	0.0048694704
134	0xbd013cf4	-0.03155227
135	0xbe20d533	-0.15706329
136	0xbce454cd	-0.027872467
137	0xbe2893b2	-0.16462591
138	0xbe165387	-0.146803
139	0x3d03774f	0.032096203
140	0x3d9bda08	0.076099455
141	0xbd475c6b	-0.04867212
142	0xbcda08f2	-0.026615594
143	0x3d91b920	0.07115388
144	0x3d3a4e6b	0.04548494
145	0xbd0df959	-0.034661625
146	0x3d7dfc94	0.062008455
147	0xbce38086	-0.027771246
148	0x3d7a7758	0.06114897
149	0xbb87d447	-0.0041451785
150	0x3d280b11	0.04102618
151	0x3d83e37a	0.06439872
152	0xbdca83a7	-0.09888392
153	0xbce6a555	-0.028155008
154	0x3d136741	0.035987142
155	0x3cad2794	0.021137036
156	0xb97da9be	-0.00024191194
157	0xbce68847	-0.028141154
158	0x3e1e78f2	0.15475824
159	0x3c9f8a27	0.019475056
160	0xbd50920a	-0.050920524
161	0xbe338831	-0.17532422
162	0x3d824b47	0.06362014
163	0xbccc17c9	-0.024913685
164	0xbd04aa4b	-0.032388967
165	0x3ce12081	0.02748132
166	0x3d47036f	0.04858726
167	0xbb561aa2	-0.0032669683
168	0xbd4aafb8	-0.049483985
169	0x3d38d634	0.045126155
170	0x3c524c1b	0.012835528
171	0x3cf375b6	0.029719215
172	0xbcd3d75c	-0.025859527
173	0xbda91ec1	-0.08257819
174	0x3bc3d080	0.005975783
175	0xbd34d17f	-0.044145104
176	0x3d5a48cf	0.053292092
177	0xbd82a41f	-0.0637896
178	0xbc0d5743	-0.008626762
179	0x3d882b3d	0.06648872
180	0xbd34cbc6	-0.044139646
181	0x3cce7209	0.02520086
182	0xbd513a8c	-0.051081225
183	0xbd187d07	-0.03722861
184	0xbd377102	-0.044785507
185	0x3cdc719a	0.026909638
186	0x3b860311	0.004089721
187	0xbc287f91	-0.01028432
188	0xbd7a2c7d	-0.061077584
189	0xbd9c6204	-0.076358825
190	0x3d117002	0.03550721
191	0xbc3e48b1	-0.011614011
192	0xbc82e06c	-0.015976153
193	0x39571c92	0.00020514641
194	0x3caacf27	0.020850731
195	0xbda801a2	-0.082034364
196	0x3cbd9e88	0.023146883
197	0xbdc28eab	-0.09499868
198	0xbd4312cc	-0.047625348
199	0x3b6ed7ff	0.0036444662
200	0xbcebbc03	-0.028776174
201	0x3d101a67	0.03518143
202	0x3ceda3d8	0.02900879
203	0x3c8989db	0.016789367
204	0x3ca52eb7	0.020163877
205	0xbd3d581e	-0.046226613
206	0xbb16db2d	-0.0023018823
207	0x3deb1f52	0.11480583
208	0x3cb16d4a	0.021658558
209	0x3cc1dd04	0.023664959
210	0x3d8553cf	0.06510126
211	0xbc8f511b	-0.017494729
212	0x3b382c1d	0.0028102465
213	0x3c3aaba1	0.011393459
214	0x3c76a550	0.015054062
215	0xbdc6e403	-0.097114585
216	0xbde30a87	-0.11085992
217	0xbcc7878e	-0.02435663
218	0x3c8374b4	0.01604686
219	0xbdf6af73	-0.12045183
220	0xbdbe122a	-0.09280808
221	0xbd41a953	-0.04728062
222	0x3cafcfc2	0.021461371
223	0xbbf51b15	-0.007480035
224	0xbc77fd46	-0.015136069
225	0xbcfa8ec6	-0.030585658
226	0xbdb9af14	-0.090665966
227	0x3d1d250a	0.0383654
228	0xbd19138d	-0.03737216
229	0xbd6be27c	-0.05758904
230	0xbad9a1e3	-0.0016604032
231	0xbd7b08f3	-0.06128783
232	0x3cfa65e5	0.030566165
233	0xbc154d85	-0.00911272
234	0xbc9d0226	-0.019166064
235	0x3c5ee614	0.01360466
236	0xbd7d06a5	-0.061773915
237	0x3d45440e	0.048160605
238	0xbd5f0729	-0.054450188
239	0xbd103d69	-0.035214815
240	0x3cf6c418	0.030122802
241	0x3c0b39a4	0.008497629
242	0x3c3ddfc5	0.011588995
243	0xbe15c625	-0.14626367
244	0xbcdca687	-0.026934875
245	0x3d810f3c	0.06301734
246	0x3d988b19	0.07448406
247	0x3bbbb786	0.005728665
248	0x3c8a52ee	0.016885247
249	0x3c854b6d	0.016271317
250	0xbc49121d	-0.012272385
251	0xbcc4f4cd	-0.024042511
252	0xbd59a91c	-0.05313979
253	0xbd368ce2	-0.04456795
254	0x3d8a5074	0.067536265
255	0xbd2ff56c	-0.042958662

layers.4.bias f4 [100]
0	0xbd216c06	-0.03940966
1	0x3e086bba	0.13322344
2	0x3d5ce82c	0.053932354
3	0x3e434b91	0.19071795
4	0x3d35d76b	0.04439489
5	0x3e68d4b2	0.22737387
6	0xbd199f86	-0.03750565
7	0x3e928a4a	0.2862113
8	0xbe1be22f	-0.15223001
9	0x3d6e57be	0.058189146
10	0x3e9f451a	0.31107408
11	0xbd4c2bb4	-0.049846366
12	0x3e961467	0.2931244
13	0x3e78d309	0.24299254
14	0x3e852080	0.26001358
15	0xbe35d3d5	-0.17756589
16	0x3d9b9b17	0.075979404
17	0x3eb59c77	0.35470936
18	0xbe36be92	-0.17846134
19	0x3d81ca3f	0.063374035
20	0xbd8326e0	-0.06403899
21	0xbe134210	-0.1438067
22	0xbe218a84	-0.15775496
23	0x3ec1ca49	0.37849644
24	0x3e811e3d	0.25218382
25	0xbd89be6f	-0.067257755
26	0x3ee6f457	0.45108292
27	0x3d4f4b67	0.05060902
28	0x3ec68338	0.38771987
29	0x3ec52cb3	0.38510665
30	0x3e1a8dcf	0.15093158
31	0xbdc391ec	-0.09549317
32	0x3e99bdfa	0.30027753
33	0x3eac26f0	0.33623457
34	0xbe9ec760	-0.31011486
35	0xbdef11aa	-0.11673291
36	0x3e164f94	0.14678794
37	0x3bbbe164	0.0057336558
38	0x3d8f4419	0.069954105
39	0xbc6c0022	-0.014404329
40	0x3d44ea1e	0.048074834
41	0x3d8b6636	0.068066046
42	0x3e62183f	0.22079562
43	0x3ea0e72c	0.3142637
44	0x3eb2e65e	0.3494138
45	0x3baf2c27	0.0053458395
46	0xbdbe6c97	-0.092980556
47	0x3cd0cfe0	0.025489748
48	0x3e961ed5	0.29320398
49	0xbd48c524	-0.049016133
50	0xbe2a0b1a	-0.16605797
51	0x3cfed110	0.031105548
52	0xbdde94a9	-0.108681984
53	0x3d24cc03	0.040233623
54	0xbdb26a4b	-0.0871168
55	0x3d1cf530	0.038319767
56	0x3e67af0f	0.22625373
57	0x3c5b10f2	0.013370739
58	0xbeaeeab7	-0.34163448
59	0xbd5ac2aa	-0.053408302
60	0xbb718fb3	-0.0036859333
61	0x3e0d0b5b	0.13773863
62	0x3e927d6f	0.28611323
63	0x3e60d73c	0.21957105
64	0x3d0662d0	0.03280908
65	0x3d8eb3ba	0.06967874
66	0xbd3daf9b	-0.04631005
67	0xbe12bab9	-0.14329042
68	0x3e9cf466	0.3065521
69	0x3e9c8ebc	0.30577648
70	0x3ea66741	0.3250065
71	0x3e73ae01	0.23796846
72	0x3e886aaa	0.26643878
73	0x3e3a8aba	0.18216982
74	0x3ea8268b	0.32841906
75	0x3e69aef9	0.22820653
76	0xbcd86572	-0.02641556
77	0x3eacdb1a	0.3376091
78	0x3ea8b3bd	0.3294963
79	0xbd4709fc	-0.048593506
80	0x3ef08148	0.46973634
81	0xbd935144	-0.071932346
82	0x3e6a7bf1	0.22898842
83	0xbe71c149	-0.23608889
84	0x3e8a2dd2	0.26988083
85	0x3ec5ad71	0.38608888
86	0x3d08530b	0.03328232
87	0x3e3ba24d	0.18323632
88	0xbe2a18c8	-0.16611016
89	0x3e2b9af8	0.16758335
90	0x3d9c6b2f	0.07637631
91	0xbe0b1491	-0.13582064
92	0x3ed862bc	0.42262828
93	0x3deca8c3	0.11555626
94	0x3e8c3c16	0.27389592
95	0x3e9f4e7f	0.31114575
96	0xbdd49335	-0.1037964
97	0x3e909045	0.2823507
98	0x3eb3d00b	0.35119662
99	0x3d96cb5e	0.07363008
